encoder.model (torch, 12343 bytes, 8 tensors)

0.weight f4 [14, 7]
0	0x3f0e6eea	0.5563799
1	0xbf07de0e	-0.53073204
2	0x3b504b76	0.003178326
3	0x3ea2dfdc	0.31811416
4	0xbf9de032	-1.2334044
5	0x3cec60b3	0.028854704
6	0x3fb6711c	1.4253268
7	0x3ebdd5e0	0.37077236
8	0x3f8a4108	1.0801096
9	0x3d569d6d	0.052396227
10	0xbf659c43	-0.8969156
11	0xbf60c065	-0.8779357
12	0x3e4fe7dc	0.20303291
13	0xbf9adad0	-1.2098026
14	0xbf3cee74	-0.7380135
15	0xbf19b2fb	-0.6003873
16	0xbea6615f	-0.32496163
17	0x3ef2fc7f	0.47458264
18	0x3eb3358f	0.350018
19	0x3f446378	0.7671428
20	0x3ed9fea3	0.42577085
21	0xbf404552	-0.75105774
22	0x3f950a20	1.1643715
23	0x3ffc05f7	1.968932
24	0x3f804ed6	1.0024059
25	0x3f7a6331	0.97807604
26	0x3f82939c	1.0201297
27	0xbd22f155	-0.039780933
28	0x3c50c5dc	0.012742486
29	0x3dca3e46	0.09875159
30	0x3d2406e8	0.04004565
31	0x3cf1ec6d	0.029531682
32	0x3f6bfa01	0.9217835
33	0x3f720bbf	0.94549173
34	0x400b67a6	2.1782012
35	0x3f037a7f	0.5135879
36	0x3ee3f4d7	0.44522735
37	0x3f37674d	0.71642
38	0xbeffd1df	-0.49964806
39	0x3cf8fc89	0.030393856
40	0x3f847eca	1.0351193
41	0xbe9094f4	-0.28238642
42	0xbe8e0a4c	-0.2774223
43	0xbe9177bc	-0.28411663
44	0x3e6c0b44	0.23051172
45	0x3f047491	0.51740366
46	0x3f8d7156	1.1050212
47	0xbfa770c8	-1.3081293
48	0xbf9db218	-1.2319975
49	0x3ebb83aa	0.3662389
50	0xbea45df3	-0.32102928
51	0x3e172036	0.14758381
52	0xbe85313c	-0.26014125
53	0x3f665d32	0.89985955
54	0xbf7a6340	-0.97807693
55	0x3ed7f907	0.4218218
56	0x3f012156	0.5044149
57	0x3f01ef54	0.5075581
58	0x3f3b35a3	0.7312872
59	0x3fcd3968	1.6033144
60	0x3e6477a8	0.2231127
61	0x3d6b1b86	0.057399295
62	0x3e3824df	0.17982815
63	0xbe1a8730	-0.15090632
64	0x3f87d6cd	1.0612427
65	0x3d5e8f35	0.05433579
66	0x3ebc1a7c	0.36738956
67	0xbf28db70	-0.65959835
68	0xbe75d882	-0.24008372
69	0xba9db8c5	-0.0012033215
70	0xbf64d15d	-0.89381963
71	0x3fa17143	1.261269
72	0xbe046105	-0.12927635
73	0xbe9ac3d9	-0.30227545
74	0x3e3b36b9	0.18282594
75	0xbeafbcb4	-0.34323657
76	0x3ed45cc0	0.41477013
77	0x3fb7a47d	1.4347073
78	0xbf91a0af	-1.1377162
79	0xbedff773	-0.43743476
80	0x3dbb90da	0.091584876
81	0x3edb67d1	0.42852643
82	0x3e033830	0.12814403
83	0xbe512e8a	-0.2042791
84	0xbeb152d4	-0.34633505
85	0xbef61fe5	-0.4807121
86	0x3e31da86	0.17368516
87	0x3f940529	1.1564075
88	0x3fb65b9b	1.4246706
89	0xbf31523f	-0.6926612
90	0x3fd21b19	1.641452
91	0x3ddc27f1	0.10749806
92	0xbeb5418c	-0.3540157
93	0xbf3af08e	-0.7302331
94	0xbbebc971	-0.0071956445
95	0x3f10ded1	0.5658999
96	0xbf80477e	-1.0021818
97	0x3e573d4c	0.21019477

0.bias f4 [14]
0	0xbd894f45	-0.067045726
1	0x3f0142a4	0.5049231
2	0x3f3c1c2b	0.7348048
3	0x3f02b98a	0.5106436
4	0xbfa86e6a	-1.3158696
5	0x3e63f74a	0.22262302
6	0x3ee01c55	0.43771616
7	0x3ee4c789	0.44683483
8	0xbbeb575e	-0.007182046
9	0x3e8e0bf6	0.277435
10	0x3ddb1ffa	0.106994584
11	0x3f0f83e2	0.5606061
12	0xbeadd133	-0.3394867
13	0x3cd864f9	0.026415335

2.weight f4 [28, 14]
0	0x3f6fcb6e	0.93669784
1	0xbf64c183	-0.89357775
2	0x3e707d16	0.23485216
3	0xbec6fcbb	-0.38864693
4	0xbec3145a	-0.38101465
5	0xbf29155e	-0.6604823
6	0x3ebb787a	0.36615354
7	0x3eb7d0b2	0.3590141
8	0xbdc4f6ab	-0.09617361
9	0x3daa1af6	0.08305924
10	0x3e49046c	0.19630593
11	0x3e6646ac	0.22487897
12	0xbecf2406	-0.4045717
13	0x3e4b073f	0.19826983
14	0xbe9b8a16	-0.3037879
15	0x3e8ab195	0.2708861
16	0x3df9a84a	0.12190302
17	0xbd523669	-0.05132142
18	0xbe853427	-0.26016352
19	0xbc553ded	-0.013015253
20	0xbe1864e3	-0.14882235
21	0x3de4fd0e	0.11181079
22	0xbd341eaa	-0.043974556
23	0xbe7e6b04	-0.2484551
24	0xbd66d111	-0.056351725
25	0x3e89823a	0.26857167
26	0xbe3bf27f	-0.18354224
27	0xbd35112b	-0.044205826
28	0x3ec6e3e8	0.38845754
29	0x3ef0ad65	0.4700729
30	0x3e1aeccf	0.15129398
31	0xbec6e662	-0.38847643
32	0x3e69ccc8	0.22832024
33	0xbd744384	-0.0596347
34	0xbe2648f7	-0.16238771
35	0xbe97427e	-0.29542917
36	0xbf182652	-0.5943347
37	0x3e655c63	0.22398524
38	0xbe219e1e	-0.15782973
39	0x3de9e9c7	0.114215426
40	0x3ee68d13	0.45029506
41	0x3e378059	0.17920054
42	0xbf0a7e3e	-0.5409888
43	0x3e4060e0	0.18786955
44	0x3f088ed9	0.5334297
45	0xbd7bc006	-0.061462425
46	0x3e87ebe7	0.26547167
47	0x3e2eeed0	0.17083287
48	0x3f0d2c34	0.55145574
49	0xbea6d19c	-0.32581794
50	0xbf370752	-0.71495545
51	0xbe2bf80f	-0.16793846
52	0x3ef7034b	0.482447
53	0x3f346b99	0.7047668
54	0x3e9cbe06	0.30613726
55	0x3e897341	0.26845744
56	0xbd93dbf7	-0.07219689
57	0x3f5756e0	0.84116936
58	0xbe198886	-0.14993486
59	0xbf39dc59	-0.7260185
60	0x3f7f14bd	0.9964102
61	0x3d498d39	0.049206946
62	0xbf1fa69c	-0.623636
63	0x3f5c51fa	0.86062586
64	0xbf0f85b2	-0.5606338
65	0xbde62709	-0.11237914
66	0xbeaf3f7d	-0.34228125
67	0xbed8ff5b	-0.4238232
68	0x3dbd976e	0.092573985
69	0xbec84afe	-0.39119714
70	0xbe2943ed	-0.16529818
71	0xbf063da6	-0.5243782
72	0x3e83dee5	0.25755993
73	0x3f135536	0.57551897
74	0xbea00c68	-0.31259465
75	0x3e6eaad1	0.23307349
76	0xbd2eb436	-0.04265233
77	0x3e99b404	0.30020154
78	0xbdbda1c1	-0.09259368
79	0x3dd62f3b	0.10458227
80	0x3e972988	0.29523873
81	0x3ccc3552	0.024927769
82	0xbe5b1f06	-0.21398553
83	0x3e4330bd	0.19061561
84	0x3ed12bd5	0.40853754
85	0x3f147fff	0.58007807
86	0xbb83263d	-0.004002361
87	0x3f544093	0.8291103
88	0xbeebae70	-0.46031523
89	0x3ed82506	0.42215747
90	0xbe700136	-0.23437962
91	0xbebf0666	-0.3730957
92	0xbe8292be	-0.2550258
93	0x3ecc516a	0.39905864
94	0xbefa2224	-0.48854172
95	0x3e5abfcf	0.21362232
96	0xbf273c54	-0.6532643
97	0x3f0a0582	0.53914654
98	0x3f2ab7c2	0.6668664
99	0xbe6eb8fc	-0.23312753
100	0xbd046abb	-0.03232835
101	0xbe37a453	-0.17933778
102	0x3eb19d8e	0.34690517
103	0x3f1dccc7	0.6164059
104	0xbdfb7729	-0.12278587
105	0xbd2b91d8	-0.041887134
106	0xbeda94f9	-0.42691782
107	0xbcd768a8	-0.026295021
108	0xbee4f0d7	-0.44714996
109	0xbec845e5	-0.39115825
110	0x3f745021	0.95434767
111	0xbe0769d3	-0.13223962
112	0x3f0ef40b	0.5584113
113	0xbed04073	-0.4067417
114	0x3ef461e3	0.47730932
115	0xbe46e6c4	-0.19423968
116	0x3ede7eee	0.43456215
117	0x3ed96042	0.4245625
118	0xbe8aa9c6	-0.27082652
119	0xbdf3c0ee	-0.11902033
120	0xbf0d619e	-0.55227077
121	0x3e312e63	0.17302851
122	0xbe920a5e	-0.28523535
123	0xbd18491b	-0.037179094
124	0x3e21dcaa	0.15806833
125	0xbdf45e21	-0.11932016
126	0xbe32a848	-0.17447007
127	0x3f09b6a3	0.53794307
128	0xbf00d625	-0.5032676
129	0x3b81b096	0.0039578183
130	0x3d291035	0.04127522
131	0x3bada068	0.005298663
132	0x3c3e5cb9	0.0116187865
133	0x3ebcd73d	0.36882964
134	0xbed02427	-0.40652582
135	0x3f07eeae	0.5309857
136	0x3dda5cd5	0.106622376
137	0xbea7702c	-0.32702768
138	0xbf093078	-0.5358958
139	0xbd445e9d	-0.047941793
140	0x3f2dc063	0.67871684
141	0x3e25a067	0.1617447
142	0x3d53e23d	0.05172943
143	0xbf1d5623	-0.6145956
144	0x3f32e8da	0.69886553
145	0xbe196c23	-0.14982657
146	0xbf328685	-0.6973651
147	0xbecfac5e	-0.40561193
148	0x3ed6939e	0.41909498
149	0x3f601664	0.87534165
150	0xbe27d8ee	-0.16391346
151	0xbf1e7e35	-0.61911327
152	0xbe79d6e8	-0.24398386
153	0xbf23c286	-0.63968694
154	0xbe8343ee	-0.25637764
155	0x3d32ed7a	0.043683507
156	0xbd167b0d	-0.036738444
157	0x3d431f53	0.047637295
158	0xbda0c3df	-0.078498594
159	0xbe5d601a	-0.21618691
160	0xbd3f1653	-0.04665215
161	0xbf0b2641	-0.54355246
162	0x3d97d2e3	0.0741327
163	0x3ea45d4a	0.32102424
164	0x3eaf0f22	0.34191233
165	0xbdd77a9e	-0.10521434
166	0xbe1286c4	-0.14309222
167	0x3e4be042	0.19909766
168	0x3ee80c34	0.4532181
169	0xbeb17b0a	-0.34664184
170	0x3e6f4684	0.23366743
171	0xbd50ffa3	-0.051025044
172	0x3de3c357	0.111212425
173	0x3d96b4f7	0.07358735
174	0x3e818208	0.25294518
175	0x3f16a76b	0.5884921
176	0x3e89de59	0.2692745
177	0xbeb6067f	-0.3555183
178	0xbe74826f	-0.23877881
179	0x3eba866c	0.3643068
180	0xbf171675	-0.5901864
181	0x3ebcd9b7	0.36884853
182	0x3f396f8c	0.7243583
183	0xbebd30dc	-0.3695134
184	0xbd890960	-0.06691241
185	0xbf07f9db	-0.53115624
186	0x3f257944	0.6463816
187	0x3df10166	0.11767845
188	0xbebbc5e1	-0.36674407
189	0x3ed3c1c3	0.41358766
190	0xbe8c0b74	-0.27352488
191	0x39ee9e5d	0.00045512887
192	0x3ed620cc	0.41821897
193	0xbea0363f	-0.31291386
194	0x3e15e40a	0.14637771
195	0x3df2fe8d	0.11864958
196	0xbe9cafd0	-0.30602884
197	0xbee78689	-0.4521983
198	0x3eadd45a	0.33951074
199	0x3f2df1ac	0.67946887
200	0xbd871c00	-0.065971375
201	0x3dc3e885	0.09565834
202	0xbeae14d8	-0.34000278
203	0x3e3b6edc	0.18304008
204	0xbe7db0b1	-0.24774434
205	0xbe697b4c	-0.2280094
206	0x3e6031ad	0.2189395
207	0xbd528e7f	-0.051405426
208	0xbe4f470e	-0.20241949
209	0x3e682ffd	0.22674556
210	0xbd09bf43	-0.033629667
211	0x3e995412	0.29946953
212	0xbf5d55f1	-0.8645926
213	0xbc19e5fa	-0.00939321
214	0x3ea1e842	0.3162251
215	0x3e3469f2	0.1761854
216	0xbe9f4334	-0.3110596
217	0x3edd3287	0.43202612
218	0x3e9b9a13	0.30390987
219	0xbcdccecc	-0.026954077
220	0x3d87f451	0.066383965
221	0xbed4cb45	-0.41561332
222	0xbeccad8d	-0.3997616
223	0x3dbd570e	0.0924512
224	0x3df08a8b	0.11745175
225	0xbe4dbbac	-0.20091122
226	0x3ed40a51	0.4141412
227	0xbf08fc78	-0.53510237
228	0x3f367fce	0.71288764
229	0xbd18c4b8	-0.03729698
230	0xbe66455a	-0.22487393
231	0x3ed5e703	0.4177781
232	0x3f1dac12	0.61590683
233	0x3d40a055	0.047027905
234	0xbcefdb28	-0.029279307
235	0xbe36b02f	-0.17840646
236	0xbe05b265	-0.13056333
237	0xbd7b7b81	-0.06139708
238	0x3d48c1d2	0.049012966
239	0x3e893854	0.26800787
240	0x3eed12ec	0.463035
241	0x3ee492d7	0.4464328
242	0xbeef533f	-0.467432
243	0xbd19c142	-0.03753782
244	0xbe33c42e	-0.17555305
245	0xbeccaced	-0.39975682
246	0xbeb2941a	-0.34878618
247	0xbd1e5c2f	-0.038662132
248	0xbed66aad	-0.41878262
249	0x3d88b197	0.066744976
250	0xbee55f7e	-0.44799417
251	0x3c1be1d0	0.009514287
252	0xbe12d4be	-0.14338967
253	0xbd805d0f	-0.062677495
254	0x3d4d25bc	0.050084814
255	0x3e0be362	0.13660958

2.bias f4 [28]
0	0xbd44bd27	-0.048031952
1	0xbe08e260	-0.13367605
2	0x3f0f1c19	0.5590225
3	0x3ec186c3	0.37798128
4	0x3f0522c3	0.5200617
5	0xbccac74c	-0.024753235
6	0x3f00fb6d	0.50383645
7	0x3e8bf6f8	0.2733686
8	0x3ed6b18b	0.4193233
9	0xbe9b4332	-0.30324703
10	0x3f0092b7	0.5022387
11	0xbdf39e8b	-0.11895474
12	0xbe748976	-0.23880562
13	0x3b9faac7	0.004872653
14	0x3e7d793f	0.24753283
15	0x3dcd3e5a	0.10021658
16	0x3f0c1a48	0.547276
17	0x3f3ff6b6	0.74985826
18	0xbe42ac14	-0.19010955
19	0x3dbbbc8d	0.091668226
20	0x3e019c91	0.12657382
21	0xbe471b39	-0.19443978
22	0xbf25d0ab	-0.6477153
23	0xbdeec827	-0.1165927
24	0xbe04d833	-0.12973098
25	0x3e96c341	0.29445842
26	0xbc9de808	-0.01927568
27	0x3e79160a	0.24324813

4.weight f4 [56, 28]
0	0x3dca6721	0.098829515
1	0x3e14335d	0.14472719
2	0x3e1a3d24	0.15062386
3	0x3ea99dbc	0.33128154
4	0x3e2e9816	0.17050204
5	0x3c5ce5d1	0.013482527
6	0xbcccabe0	-0.0249843
7	0xbe2ce775	-0.16885169
8	0xbe646316	-0.22303423
9	0x3ded4dd1	0.11587108
10	0xbe83f6d4	-0.25774252
11	0x3d53f6f8	0.0517492
12	0x3d9ee7eb	0.077590786
13	0xbeae272c	-0.3401426
14	0x3e0e3c2d	0.13890143
15	0xbc129a39	-0.008947902
16	0xbb99c017	-0.0046920883
17	0x3ccdefe3	0.025138801
18	0xbdc13331	-0.09433592
19	0xbea95c50	-0.3307824
20	0xbd431e98	-0.0476366
21	0xbd6200b8	-0.055176467
22	0xbdf2a385	-0.11847595
23	0x3e7a6516	0.24452624
24	0xbe20de86	-0.15709886
25	0x3e1d630d	0.15369816
26	0x3bedaca9	0.0072532487
27	0x3e98f183	0.2987176
28	0x3e84a93c	0.25910366
29	0xbd211095	-0.039322454
30	0x3d82d4f0	0.06388271
31	0xbe3c53d0	-0.18391347
32	0xbe402076	-0.18762383
33	0xbd89c9a5	-0.06727914
34	0x3e1c3d5d	0.15257783
35	0x3b6ef42c	0.0036461456
36	0x3dce5f22	0.10076739
37	0xbc48d49e	-0.012257723
38	0xbda30718	-0.079603374
39	0x3b1d309a	0.0023985268
40	0xbd902068	-0.07037431
41	0xbdef6b21	-0.11690355
42	0x3cdb3924	0.026760645
43	0xbd9ef4e8	-0.07761556
44	0x3e0cb81d	0.13742109
45	0x3e006fa8	0.12542593
46	0x3d3fb856	0.046806656
47	0x3d4201d7	0.047365036
48	0xbd75f3a2	-0.0600468
49	0xbe1c20a8	-0.15246832
50	0xbcfe968a	-0.031077642
51	0x3e37cace	0.17948458
52	0x3e10b122	0.14130071
53	0xbe325f83	-0.17419247
54	0xbcec2695	-0.028826991
55	0x3dbf6fae	0.09347473
56	0x3c2ddee5	0.010612224
57	0x3ce5b1e4	0.028038926
58	0xbeaf8986	-0.3428461
59	0x3e702f34	0.23455507
60	0xbeadc647	-0.33940336
61	0x3e325701	0.17416002
62	0x3ef7fd49	0.4843543
63	0xbefbcd31	-0.49179986
64	0xbcb16e16	-0.021658938
65	0xbb6ad033	-0.0035829663
66	0x3e8f869b	0.28032383
67	0x3e6f6eb1	0.23382069
68	0x3e3224c5	0.17396839
69	0x3e0269e2	0.12735704
70	0xbdb2d147	-0.08731323
71	0x3e7c4a54	0.24637729
72	0x3e622450	0.22084165
73	0xbdb35e59	-0.0875823
74	0xbe061cfe	-0.13096997
75	0x3eb826f4	0.3596722
76	0xbe436b24	-0.1908384
77	0xbdde1884	-0.1084452
78	0x3d803f0b	0.062620245
79	0xbe0bf1cc	-0.13666457
80	0xbd156194	-0.03647001
81	0xbe4e1f41	-0.2012911
82	0xbe54c132	-0.20776823
83	0xbe46e6d4	-0.19423991
84	0xbf83ae59	-1.0287582
85	0x3e29d53c	0.16585249
86	0x3e70618f	0.23474716
87	0xbf077515	-0.5291303
88	0x3f38e121	0.7221852
89	0xbec655e4	-0.38737404
90	0x3d489bdd	0.048976768
91	0x3e7399a5	0.2378908
92	0x3e25d69c	0.16195148
93	0xbea90a4a	-0.33015662
94	0x3f018d3d	0.5060614
95	0x3d89502f	0.06704747
96	0xbeb319c4	-0.34980595
97	0xbe40f380	-0.18842888
98	0x3f2e3267	0.6804566
99	0x3e4794a6	0.19490299
100	0x3ec68f7d	0.38781348
101	0x3c8b62f7	0.017014964
102	0xb9c5675c	-0.00037651777
103	0x3df0c511	0.117563374
104	0x3f000cbd	0.5001944
105	0x3df538d9	0.119737335
106	0x3e179d75	0.14806159
107	0xbf899b5c	-1.0750537
108	0x3e2bc84f	0.1677563
109	0xbd4e5171	-0.050370637
110	0x3dbe9792	0.093062535
111	0xbf719a1e	-0.9437579
112	0x3cc2c56b	0.023775777
113	0x3e5840b2	0.2111843
114	0x3e585a2f	0.21128152
115	0x3d57268d	0.052527
116	0x3c89e9c5	0.016835103
117	0xbe57b511	-0.21065165
118	0xbd8cfe29	-0.06884415
119	0xbdc38128	-0.09546119
120	0xbe173633	-0.14766769
121	0xbd37d576	-0.044881307
122	0x3be6407d	0.0070267306
123	0xbd9df087	-0.077118926
124	0xbcfc52fa	-0.030801285
125	0x3de6b687	0.11265283
126	0xbeb14cf6	-0.3462903
127	0x3e44e286	0.19227037
128	0x3e88fcc6	0.2675535
129	0xbb1da54f	-0.002405483
130	0xbe1f84d9	-0.15578021
131	0x3e16d37a	0.1472911
132	0x3e373280	0.17890358
133	0xbe2c92e6	-0.16852912
134	0xbd330d7c	-0.04371403
135	0x3e034f26	0.12823161
136	0xbd53adf2	-0.05167956
137	0xbd3dd441	-0.046345
138	0x3db7febc	0.089841336
139	0x3cc6c1b4	0.024262287
140	0xbb2b4c78	-0.0026138108
141	0xbdda5817	-0.10661333
142	0xbdfef059	-0.124481864
143	0x3d504233	0.050844382
144	0x3dd28e35	0.1028103
145	0x3e178ffd	0.14801021
146	0xbdcf916f	-0.10135161
147	0x3e43e7e1	0.19131424
148	0x3e21c03e	0.15795991
149	0x3e2ceb0e	0.16886541
150	0xbdfa8114	-0.12231651
151	0x3cef1191	0.029183181
152	0xbc86e3ff	-0.016466139
153	0xbdf19192	-0.117953435
154	0x3dbefd60	0.09325671
155	0xbe0d687d	-0.1380939
156	0xbe29094e	-0.16507456
157	0x3d689402	0.056781776
158	0xbe10f39d	-0.14155431
159	0xbc50f789	-0.0127543295
160	0xbd98e2ae	-0.07465111
161	0x3e33a8c9	0.17544855
162	0xbe02a25e	-0.1275725
163	0xbe0a56c8	-0.13509667
164	0xbe08e356	-0.13367972
165	0xbe01a661	-0.12661125
166	0xbd3c03e4	-0.045902148
167	0x3db14413	0.08655562
168	0x3ed45b1c	0.4147576
169	0xbe35edf3	-0.17766552
170	0x3e5afec6	0.21386251
171	0xbf3d24b2	-0.7388412
172	0x3e3927b7	0.18081556
173	0xbe4f65b9	-0.20253648
174	0xbf27ea04	-0.65591455
175	0xbe3aa2cb	-0.18226163
176	0x3de16987	0.11006456
177	0x3e2914f2	0.16511896
178	0x3ec799d8	0.3898456
179	0xbe54a88a	-0.20767418
180	0x3dec14cc	0.11527404
181	0x3eabd1e0	0.3355856
182	0x3e06f587	0.13179599
183	0xbe98cbb9	-0.29842928
184	0x3ecfa12a	0.40552646
185	0x3d02deb6	0.031950675
186	0x3d6ebe09	0.0582867
187	0xbe8eaa8e	-0.27864498
188	0x3eceb5a2	0.4037295
189	0x3e397b1e	0.18113372
190	0xbf03c3a9	-0.5147043
191	0x3eaab994	0.3334471
192	0x3cdcc92f	0.0269514
193	0xbeff72a2	-0.49892145
194	0xbe679672	-0.22615984
195	0xbcd1c574	-0.025606848
196	0x3f013677	0.5047373
197	0x3e25f54b	0.16206853
198	0xbe6381c1	-0.22217466
199	0x3ee0a6c0	0.4387722
200	0xbdb11bd0	-0.08647883
201	0x3e214c59	0.1575178
202	0xbea1a18d	-0.31568566
203	0xbe1f2ff0	-0.1554563
204	0xbdfe0753	-0.12403741
205	0x3f24d652	0.64389527
206	0x3e1c0e20	0.15239763
207	0x3d887c70	0.066643596
208	0x3e5bd489	0.21467794
209	0xbdc50d18	-0.09621638
210	0xbe494c02	-0.19657901
211	0xbe5feb8c	-0.21867198
212	0xbd902bcf	-0.07039606
213	0x3cbe7ae3	0.023251956
214	0xbdb95c85	-0.0905085
215	0x3dd3b5ba	0.10337396
216	0xbedbfa54	-0.42964423
217	0x3cb41cb1	0.021986337
218	0xbd9c68e6	-0.07637195
219	0x3f24b66f	0.6434087
220	0xbd4f0c92	-0.050549097
221	0x3f01b10a	0.50660765
222	0xbecee0cf	-0.4040589
223	0x3e9aa362	0.30202776
224	0x3cceaa58	0.02522771
225	0x3c8df2be	0.017327663
226	0x3daec62d	0.08533893
227	0x3e41466d	0.18874522
228	0xbe8a89ea	-0.27058345
229	0x3e05081f	0.12991379
230	0xbc877083	-0.016533142
231	0xbc40ec91	-0.011775152
232	0xbeb73816	-0.35784978
233	0xbbec5733	-0.0072125434
234	0xbc72b675	-0.014814009
235	0x3def1363	0.116736196
236	0x3a1b0896	0.000591406
237	0xbdb9ab49	-0.09065873
238	0x3e34599e	0.17612311
239	0xbd7e6d5c	-0.062116012
240	0x3d1f48e4	0.038887873
241	0xbe6b2af6	-0.22965607
242	0x3dd7a848	0.10530144
243	0xbc34c01d	-0.0110321315
244	0xbc9494dd	-0.01813739
245	0xbdf33efa	-0.11877246
246	0x3e2d192c	0.16904134
247	0xbdd6416d	-0.10461698
248	0x3d8df4d3	0.06931462
249	0x3e1a1caa	0.15049997
250	0xbde5f1fa	-0.11227794
251	0x3ec9994f	0.39374778
252	0xbc3fe5fc	-0.011712547
253	0xbd006579	-0.031346772
254	0x3d676189	0.0564895
255	0x3e51677c	0.20449632

4.bias f4 [56]
0	0x3e401927	0.18759595
1	0x3cd83a41	0.026394965
2	0x3e596208	0.21228802
3	0xbc9ed64d	-0.019389296
4	0xbd1eba2f	-0.038751777
5	0xbe3191be	-0.17340752
6	0xbc8592ca	-0.016305346
7	0xba855709	-0.0010173033
8	0x3e082f19	0.13299216
9	0x3ceb7d23	0.028746193
10	0xbb9ac985	-0.00472373
11	0x3dbeac8c	0.093102545
12	0xbd65a38f	-0.056064185
13	0xbe4d65bd	-0.20058341
14	0xbd2e8916	-0.042611204
15	0x3e0cac7d	0.13737674
16	0x3b953399	0.00455327
17	0x3bae9723	0.0053280755
18	0x3bfb4a82	0.007668794
19	0x3dd20ebb	0.10256716
20	0xbe0f99df	-0.14023541
21	0xbdc7fe9e	-0.09765361
22	0x3e60f06c	0.21966714
23	0x3e274591	0.16335131
24	0xbe0c8a8f	-0.13724731
25	0x3e853dd2	0.26023728
26	0x3da38806	0.07984929
27	0xbc32f174	-0.010921825
28	0xbdd203af	-0.10254609
29	0x3d9c581f	0.07633995
30	0x3e3c955e	0.18416354
31	0xbe45c807	-0.19314586
32	0xbd48aa25	-0.048990387
33	0x3d975828	0.07389861
34	0xbd6fb952	-0.058526345
35	0xbcf3c8c5	-0.02975882
36	0xbc352cd2	-0.011058049
37	0xbe66f5ed	-0.2255475
38	0x3e073547	0.13203917
39	0xbd155bff	-0.036464687
40	0xbe057153	-0.13031511
41	0xbe1a65d4	-0.15077907
42	0x3df8c41d	0.12146781
43	0xbe7f5b57	-0.24937187
44	0x3d176598	0.03696212
45	0xbe337abd	-0.1752729
46	0x3dab7917	0.083727054
47	0x3e710f5b	0.23541014
48	0x3e7e2739	0.2481965
49	0x3e198b47	0.14994536
50	0x3e0c00b0	0.13672137
51	0xbcc77dba	-0.024351943
52	0xbdeac89d	-0.11464045
53	0xbd9ed056	-0.07754581
54	0xbf25a0b4	-0.6469834
55	0xbe23d5a6	-0.15999469

6.weight f4 [4, 56]
0	0xbe24e0c4	-0.16101366
1	0xbd720641	-0.059087995
2	0xbe3c5e3a	-0.1839532
3	0x3e8140ff	0.252449
4	0xbe2027ed	-0.1564023
5	0x3e0b682a	0.13613954
6	0xbd9b726b	-0.07590183
7	0x3e21ceb1	0.15801503
8	0xbeb05729	-0.34441498
9	0x3e1f5dfd	0.15563197
10	0x3da592c3	0.08084633
11	0xbe6e77f5	-0.23287947
12	0x3d64dbf4	0.055873826
13	0xbe50b35a	-0.20380917
14	0x3e74cb40	0.23905659
15	0xbc0aacf8	-0.0084640905
16	0x3d24bbcc	0.04021816
17	0xbe3f08ce	-0.18655702
18	0x3d0490db	0.032364707
19	0x3e8655e7	0.26237413
20	0x3d8f3929	0.06993324
21	0x3e992927	0.2991421
22	0x3e1c4298	0.15259778
23	0xbe58c360	-0.2116828
24	0x3e011a71	0.12607743
25	0xbde6c26d	-0.112675525
26	0xbf17b828	-0.59265375
27	0xbe687882	-0.2270222
28	0xbf467e47	-0.77536434
29	0x3e6801c5	0.22656925
30	0x3e8ad51f	0.27115723
31	0xbd69ac0a	-0.057048835
32	0xbd99b6ba	-0.075055555
33	0xbda3cd6a	-0.07998164
34	0x3d91aa39	0.071125455
35	0xbf0d5b07	-0.5521702
36	0xbe68d87b	-0.22738831
37	0xbe111dd2	-0.14171532
38	0xbd9cf323	-0.07663562
39	0x3d653f1b	0.055968385
40	0xbd4cbff0	-0.049987733
41	0x3f167753	0.58775824
42	0xbd9945c8	-0.07484013
43	0x3d2c05cb	0.041997712
44	0xbd860b61	-0.06545139
45	0x3e9bcd17	0.3042991
46	0xbe50014a	-0.20312992
47	0xbd852e5e	-0.065029845
48	0x3c56af1e	0.013103275
49	0xbe7169f1	-0.2357557
50	0xbe7c4353	-0.24635057
51	0x3ea3e84a	0.3201316
52	0xbe22fe2a	-0.15917268
53	0x3e239f42	0.15978721
54	0x3e3a8904	0.1821633
55	0x3e82f463	0.25577077
56	0x3f09d1a6	0.53835523
57	0x3c2bfccd	0.010497284
58	0x3f71a5b0	0.94393444
59	0xbfe8d0d4	-1.8188729
60	0x3e10de92	0.14147404
61	0x3d5a3779	0.05327556
62	0xbf9fac65	-1.2474486
63	0xbfa3388c	-1.2751632
64	0x3e6966e7	0.2279316
65	0xbf8c200f	-1.0947284
66	0x3cdb0c74	0.026739337
67	0x3e3d2b2e	0.18473503
68	0x3dae3684	0.08506492
69	0xbe7d7224	-0.24750572
70	0x3c1ab2e4	0.009442065
71	0x3f6d5182	0.92702496
72	0x3f554932	0.8331481
73	0x3f62272b	0.88341016
74	0x3f0152fc	0.5051725
75	0xbe4830f1	-0.1954992
76	0xbcc0b1eb	-0.023522338
77	0xbf174ccd	-0.59101564
78	0x3e980463	0.29690847
79	0xbcfc2694	-0.030780114
80	0xbdc652be	-0.096837506
81	0x3f81f16a	1.0151799
82	0xbe19939e	-0.14997718
83	0xbdfc3b72	-0.12316026
84	0xbed7470c	-0.42046392
85	0x3e9ffd46	0.3124792
86	0xbf3acca0	-0.7296848
87	0x3db359e2	0.08757378
88	0x3c82fa98	0.015988633
89	0xbe5616bd	-0.20907111
90	0xbdd7983c	-0.10527083
91	0xbe38c041	-0.18042089
92	0x3e0b120a	0.135811
93	0x3e1e34e2	0.1544986
94	0x3d863128	0.065523446
95	0xbf22393d	-0.6336859
96	0xbe8c8e15	-0.2745215
97	0x3e0992c3	0.13434891
98	0x3f16923c	0.58816886
99	0xbba9d4ce	-0.005182839
100	0xbd8e8a33	-0.06959953
101	0x3e0f2784	0.13979918
102	0x3d2a4be9	0.0415763
103	0x3f014ae6	0.5050491
104	0x3eb98224	0.36232102
105	0xbea82b63	-0.328456
106	0xbea509cf	-0.32234046
107	0xbd8ca02d	-0.068664886
108	0xbfde7b99	-1.7381469
109	0xbe6e3b2c	-0.2326476
110	0xc02d018c	-2.7032194
111	0xbb874dac	-0.0041291323
112	0x3caf962c	0.021433912
113	0x3ea1a7ce	0.31573337
114	0xbd045d3a	-0.03231547
115	0x3f38130e	0.71904075
116	0x3e91cb15	0.28475252
117	0xbd7ec3ab	-0.062198322
118	0x3f3bc864	0.73352647
119	0x3e7e4dfa	0.24834433
120	0xbe89c93a	-0.26911336
121	0x3e9e2058	0.3088405
122	0xbd252bfb	-0.040325146
123	0xbd1e64ee	-0.038670473
124	0xbea25afe	-0.31710047
125	0xbe392914	-0.18082076
126	0x3df87d92	0.12133326
127	0xbccba337	-0.0248581
128	0xbeace0f2	-0.3376537
129	0xbdd052a6	-0.10172014
130	0xbea9aeda	-0.33141214
131	0x3eb5d8c7	0.3551695
132	0x3e59466a	0.21218267
133	0xbca5bc4f	-0.020231394
134	0x3d6add4f	0.057339963
135	0x3d65513a	0.055985667
136	0xbce65255	-0.02811543
137	0xbed658d2	-0.4186464
138	0xbe76ad5b	-0.24089567
139	0xbeb1251f	-0.34598634
140	0xbed08cfc	-0.40732563
141	0xbde97adc	-0.11400387
142	0x3f55b768	0.8348298
143	0xbd8ae610	-0.06782162
144	0xbd620277	-0.055178132
145	0xbdb56600	-0.088573456
146	0xba81e366	-0.0009909689
147	0xbe8ed71c	-0.2789849
148	0xbd8a17e0	-0.06742835
149	0xbe9a7a29	-0.30171326
150	0xbe04eaaf	-0.1298015
151	0xbe8b0c48	-0.27157807
152	0x3dba209b	0.0908825
153	0x3ddc4521	0.10755373
154	0xbd1b5f0b	-0.037932437
155	0xbec5b7ca	-0.38616782
156	0x3df73bba	0.12071939
157	0x3e91602c	0.28393686
158	0x3cf8d5df	0.03037542
159	0xbe815f79	-0.25268152
160	0xbe648548	-0.22316468
161	0xbd392abb	-0.045206767
162	0x3e6082ad	0.21924849
163	0x3da0e6af	0.078564994
164	0x3de43611	0.11143125
165	0x3d445439	0.047931883
166	0x3fff8294	1.9961724
167	0x3eb05b21	0.34444526
168	0xbed0e91c	-0.40802848
169	0xbdfb7de0	-0.12279868
170	0xbd9c00f5	-0.0761737
171	0x3f96af00	1.1772156
172	0xbe9682a6	-0.29396552
173	0x3dbaee05	0.0912743
174	0x3f29d934	0.6634705
175	0x3f09a67f	0.5376968
176	0xbe650ab4	-0.22367364
177	0x3f1bd46f	0.6087102
178	0xbc5c2c36	-0.013438275
179	0x3e0b8067	0.136232
180	0x3e9f30f2	0.3109203
181	0xbe84ea5a	-0.25960046
182	0x3dd16f9d	0.10226367
183	0x3cbe7f17	0.02325396
184	0xbeb40f6b	-0.35168013
185	0xbe14d069	-0.14532627
186	0xbee3e70a	-0.44512206
187	0x3eccedd2	0.40025192
188	0xbdb790e5	-0.08963183
189	0xbd822461	-0.06354595
190	0x3e021f30	0.1270721
191	0x3e1206ab	0.14260356
192	0x3bd6ecf4	0.0065590087
193	0x3af05fb2	0.0018339066
194	0xbf130b1e	-0.5743884
195	0x3dcb3295	0.09921757
196	0xbf3574f1	-0.70881563
197	0x3dc9efd8	0.098602
198	0x3e838be6	0.25692672
199	0xbd8d2b09	-0.06892974
200	0x3d4290ad	0.047501255
201	0xbe1edf21	-0.15514804
202	0x3d98b3fc	0.07456204
203	0xbeb867cb	-0.36016688
204	0xbea7b59b	-0.3275574
205	0xbf271a46	-0.65274465
206	0xbd394067	-0.045227434
207	0x3e200081	0.15625192
208	0x3e5549fb	0.20829003
209	0x3dc431c5	0.09579805
210	0xbeddf098	-0.4334762
211	0xbe9072cd	-0.28212586
212	0xbdde6ad6	-0.10860221
213	0xbd7fdb13	-0.062464785
214	0xbe99fd98	-0.3007629
215	0xbed87707	-0.4227831
216	0x3df430a6	0.119233415
217	0x3eb9abba	0.3626383
218	0x3c0418b8	0.008062534
219	0xbd826362	-0.06366612
220	0x3f54e836	0.83166826
221	0x3c974f8a	0.018470544
222	0x3fbf0469	1.4923221
223	0x3ee2dd45	0.4430944

6.bias f4 [4]
0	0x3dcddcc8	0.10051876
1	0x3f241acf	0.64103407
2	0x3e3dbeea	0.18529859
3	0x3e7084ab	0.23488109
